models/model_checkpoints/classif_ffnnA_heloc_ckpt.pth (torch, 3493 bytes, 5 tensors)

linear1.weight f4 [8, 23]
0.65302473 -0.2795297 -0.19191588 -0.031650122 0.37230337 -0.301771 -0.27719206 -0.0028145255
0.5867538 0.1074412 0.6121529 -0.17920537 0.68684804 0.4963833 0.027534653 0.06771222
-0.17231064 -1.257162 -0.57888496 -0.8366141 -0.319234 -0.44200152 0.15660782 0.63596743
0.30573067 0.5921034 -0.547433 0.1363826 -0.24761754 0.14375128 -0.2824955 0.18386216
-0.08190794 -0.18069118 -0.40042338 -0.3123505 0.018354066 -5.760337 0.32284105 0.17407262
0.2590726 0.7765318 0.113431744 0.12087712 0.7266846 0.14738709 1.237262 0.14892836
-0.39800718 0.80723584 1.1647062 -0.39095914 -0.4302897 -0.24579297 0.64727646 0.38783398
0.120887786 -0.28759408 -0.64289707 0.07943255 -0.7338999 -0.5075232 -0.34763604 -1.1080413
-0.43797952 -0.8389433 -0.4793654 -0.9445665 0.7382254 0.18636894 -0.0156047605 -0.1733977
-0.07292785 0.12846228 0.20152064 -0.16440637 -0.103757136 -0.044030163 -0.058241747 -0.1247262
-0.0064744647 -0.14578821 -0.008784288 -0.12506942 -0.03323307 -0.012338893 -0.09231523 -0.113974
0.20664239 -0.051211707 0.049897328 -0.012890441 0.93976533 0.6627396 -0.36969876 1.3058136
1.6460387 -0.110863015 -0.19930731 0.7907362 -0.65932536 -0.013565751 -0.08464843 -0.12203977
-0.026863813 -0.88858914 -0.6754393 -1.0548897 -0.7060626 -0.35254303 -0.7560003 -0.5245148
0.0005578042 -1.1526607 0.13715541 -0.015108229 -0.7650201 -0.21974625 -0.1572864 0.67683434
-0.17418513 -0.052917533 -0.5608039 -1.2868571 0.8269978 0.023822632 0.4675023 -0.4421271
0.6417555 0.33944237 0.23603337 0.2266989 -0.40632847 1.125345 -0.114572085 -0.3337278
-0.34590924 0.12746766 0.90624684 0.30050576 -0.23240541 1.055702 1.012946 -0.6068312
-0.36392123 1.1558988 0.12918963 -0.05418114 -0.13384666 -0.4409832 -0.37238914 0.026199302
-0.21444397 -1.1697252 -0.854399 -1.2797242 -0.8819383 -1.2613083 -0.24070439 -1.3612555
-0.06773731 1.6438018 0.56676686 -0.37363732 1.7745523 1.9838701 -0.7979759 -0.49370268
0.7071733 0.6952689 0.7885746 -0.6255192 -0.17831048 -0.47169858 -0.538112 -0.24141358
-1.8007779 -1.3440824 -1.6653172 -0.89660287 -1.2391149 0.5981588 -2.0643535 0.20696315
00000000: a12c 273f 841e 8fbe 9985 44be 8fa3 01bd
00000010: 8c9e be3e ba81 9abe 1eec 8dbe e773 38bb
00000020: 7f35 163f 220a dc3d 0db6 1c3f 9d81 37be
00000030: 46d5 2f3f f425 fe3e 5a90 e13c b4ac 8a3d
00000040: 3372 30be afea a0bf ce31 14bf 572c 56bf
00000050: a472 a3be 064e e2be cd5d 203e c3ce 223f
00000060: bb88 9c3e 1794 173f 9224 0cbf e1a7 0b3e
00000070: 748f 7dbe 8933 133e 40a3 90be 5d46 3c3e
00000080: 5abf a7bd 1c07 39be 4b04 cdbe 68ec 9fbe
00000090: 445b 963c ae54 b8c0 6c4b a53e 1840 323e
000000a0: 2aa5 843e caca 463f e74e e83d 6c8e f73d
000000b0: 0008 3a3f a4ec 163e 9a5e 9e3f ad80 183e
000000c0: 99c7 cbbe 02a7 4e3f 1815 953f cc2b c8be
000000d0: ee4e dcbe 27b1 7bbe e9b3 253f 2d92 c63e
000000e0: 0494 f73d 883f 93be e794 24bf 88ad a23d
000000f0: dde0 3bbf 0aed 01bf 5afd b1be 4cd4 8dbf
00000100: da3e e0be fdc4 56bf 626f f5be 1ccf 71bf
00000110: 57fc 3c3f 80d7 3e3e 1cab 7fbc 2b8f 31be
00000120: 325b 95bd 9e8b 033e 6d5b 4e3e 255a 28be
00000130: 9f7e d4bd f958 34bd e68e 6ebd 7370 ffbd
00000140: bf27 d4bb 8149 15be f9eb 0fbc 3312 00be
00000150: 661f 08bd 1129 4abc c40f bdbd 336b e9bd
00000160: 109a 533e 5ec3 51bd 2461 4c3d 6e32 53bc
00000170: 7694 703f 4da9 293f 2849 bdbe e624 a73f
00000180: 65b1 d23f 260c e3bd 3717 4cbe b06d 4a3f
00000190: 8cc9 28bf e242 5ebc 285c adbd fdef f9bd
000001a0: 8011 dcbc 947a 63bf 97e9 2cbf a006 87bf
000001b0: 85c0 34bf 8580 b4be 3c89 41bf 9a46 06bf
000001c0: 9b39 123a 638a 93bf 7872 0c3e 8188 77bc
000001d0: 5bd8 43bf 2905 61be b00f 21be 0445 2d3f
000001e0: 965d 32be 0ec0 58bd d890 0fbf bcb7 a4bf
000001f0: 21b6 533f ae27 c33c 765c ef3e 7c5e e2be
00000200: 174a 243f 64cb ad3e bbb2 713e c223 683e
00000210: 490a d0be 4e0b 903f c5a4 eabd 5fde aabe
00000220: 041b b1be e286 023e cbff 673f e4db 993e
00000230: affb 6dbe 3e21 873f 37a8 813f 4a59 1bbf
00000240: e253 babe 7ef4 933f 494a 043e 0bed 5dbd
00000250: 190f 09be 8dc8 e1be caa9 bebe eb9f d63c
00000260: 3397 5bbe 8eb9 95bf e5b9 5abf 01ce a3bf
00000270: b5c6 61bf 8d72 a1bf 367b 76be 9f3d aebf
00000280: dcb9 8abd 1968 d23f a217 113f 644d bfbe
00000290: 8824 e33f 75ef fd3f 2648 4cbf 99c6 fcbe
000002a0: 4f09 353f 25fd 313f 06e0 493f 0722 20bf
000002b0: 0697 36be 7a82 f1be b5c1 09bf 1f35 77be
000002c0: e47f e6bf e40a acbf 1d29 d5bf c487 65bf
000002d0: 519b 9ebf ef20 193f 5e1e 04c0 26ee 533e

linear1.bias f4 [8]
-1.0798777 0.4129557 -1.3507689 -0.10429078 0.120885395 0.08527621 -0.7490385 -1.1847752
00000000: 6f39 8abf ee6e d33e ffe5 acbf 6896 d5bd
00000010: c392 f73d 4ba5 ae3d fdc0 3fbf b7a6 97bf

linear2.weight f4 [8, 8]
0.007855177 -0.4059007 0.06769964 0.16691117 0.050724216 0.12736271 0.4791542 -0.32801566
-0.28919142 -0.079440996 -0.039195433 -0.07966315 0.17133164 0.15022932 -0.1872507 0.09455692
-0.25506014 -0.037777353 0.143362 0.08052935 0.04525562 -0.012719258 0.06573034 0.052465487
1.3833665 0.36419863 -0.2666635 0.3204452 -0.6711577 0.9152746 -0.36609387 -0.74485445
-0.33972925 1.021322 -0.3874106 -0.2688421 0.31325704 0.59306127 -0.2823587 -0.78924453
-0.1860002 -0.10045295 -0.13031553 0.34868672 0.20559183 -0.25190526 -0.12208812 0.003844804
0.4120836 -2.174565 1.101092 0.25913432 0.69397455 -1.2740372 0.6333492 0.16783635
-0.1355083 -0.11378441 0.11573575 0.039707303 0.07697127 -0.047065523 -0.23880324 -0.060027234
00000000: 00b3 003c 37d2 cfbe 1ca6 8a3d c3ea 2a3e
00000010: 32c4 4f3d 5f6b 023e b353 f53e abf1 a7be
00000020: e610 94be f6b1 a2bd 648b 20bd 6f26 a3bd
00000030: 9071 2f3e b7d5 193e a6be 3fbe 0fa7 c13d
00000040: 3e97 82be 6dbc 1abd 7dcd 123e 92ec a43d
00000050: f55d 393d 6f64 50bc a19d 863d 0de6 563d
00000060: 2712 b13f 3e78 ba3e 1e88 88be 6511 a43e
00000070: fed0 2bbf 704f 6a3f a870 bbbe c8ae 3ebf
00000080: fef0 adbe aeba 823f af5a c6be aca5 89be
00000090: 3a63 a03e ddd2 173f 5291 90be ee0b 4abf
000000a0: d676 3ebe 47ba cdbd 6f71 05be 1187 b23e
000000b0: aa86 523e baf9 80be 5609 fabd 1bf9 7b3b
000000c0: 9ffc d23e 132c 0bc0 95f0 8c3f 41ad 843e
000000d0: 51a8 313f a713 a3bf 2c23 223f 4bdd 2b3e
000000e0: b0c2 0abe cd07 e9bd dd06 ed3d 20a4 223d
000000f0: 1da3 9d3d c7c7 40bd d688 74be 1edf 75bd

linear2.bias f4 [8]
0.05206492 -0.46224663 -0.526974 1.3017869 0.33563486 -0.34308153 -0.54298764 -0.11677811
00000000: 0742 553d 97ab ecbe c5e7 06bf f4a0 a63f
00000010: 55d8 ab3e 62a8 afbe 3d01 0bbf 5d29 efbd

linear3.weight f4 [1, 8]
0.4768347 0.35321513 -0.31201574 -0.9221451 -0.6873068 0.31056204 0.75051016 0.26991645
00000000: ae23 f43e 9dd8 b43e 87c0 9fbe b411 6cbf
00000010: 57f3 2fbf fd01 9f3e 6f21 403f 7d32 8a3e
