models/model_checkpoints/classif_ffnnB_heloc_ckpt.pth (torch, 5257 bytes, 9 tensors)

linear1.weight f4 [8, 23]
2.1620326 -0.26185748 -0.798518 1.0745304 1.7102965 -0.9748153 -0.6852684 1.321026
-0.00020065861 -0.52997 0.57101965 -0.4858976 -0.33865333 0.6561793 0.3772544 -1.2203668
-0.7291278 -1.7871851 -1.2369554 -1.516015 -0.3411958 -1.763348 0.74429 -1.8210946
-2.295541 0.07748214 -2.8478763 -1.4699948 0.27765808 0.34328955 -1.0889255 -0.117839456
-0.06376435 0.8915071 0.0022381996 1.2217588 2.7868972 0.98512405 1.5991546 1.0532789
0.18826227 1.3520744 0.48184597 0.34736788 1.0352007 0.8985519 2.2942169 0.6900394
-0.63998514 2.1168628 2.213164 -1.0044658 -0.75750697 1.3158468 0.8608668 0.54039013
-0.45689955 -0.37128735 -0.91103226 0.020919617 -0.10241009 -1.6543245 -1.3642564 -2.3252895
-1.0037841 -1.6150404 0.09193617 -2.4230735 0.57928187 0.742778 0.024078116 1.0093949
-0.624219 -0.21965466 -0.20815426 -0.08760767 -0.35659784 0.03786105 -0.15200956 -0.16788591
-0.32614058 -0.82815564 0.2513309 -8.00102 1.1848878 0.9265263 0.24719273 1.6956809
0.055295374 -0.09369672 1.6959642 0.22136362 1.5027835 0.17220812 -0.09547439 1.463372
1.4175938 -0.51706654 -0.35350892 0.7598353 0.6607358 0.38485894 -0.6145801 0.09801375
-0.7479522 -0.33891737 -0.011162574 -0.974199 -0.7003386 -1.1996846 -0.39224222 -0.6807941
0.40463436 -1.6478014 0.23839058 -0.4805194 -0.40994132 0.18823393 -0.087997474 -1.155891
0.12622352 0.08251461 -0.5344443 0.15376934 -0.12266715 -0.24897604 0.3259596 -0.8176988
-0.28242588 2.734857 0.25115696 0.3838479 0.3895858 0.4076221 0.40251726 -0.12245808
-0.1768878 0.048994914 -0.32896423 -0.14690338 -0.23269823 -0.1459421 0.5394629 -0.10383628
-0.28953725 -0.022931386 -0.42453083 0.24694908 0.43667373 0.18447115 -0.19561031 0.2178249
-0.18643877 -0.111099474 -0.121362045 -0.1982221 0.16961588 -0.013779941 -0.06000374 -0.310748
-0.11942039 0.22439043 0.029895391 -0.14222093 0.20312476 0.3544007 -0.12589923 -0.22123928
0.0040987954 0.06283586 0.011966071 0.16797568 -0.1914908 0.042853937 0.02008683 0.050913043
0.03476254 -0.16594324 -0.26956606 0.119036615 -0.27033758 -0.17324264 -0.34898806 -0.02309628
00000000: be5e 0a40 2f12 86be ad6b 4cbf 368a 893f
00000010: ffea da3f 7f8d 79bf c06d 2fbf 6117 a93f
00000020: e367 52b9 1dac 07bf 582e 123f 92c7 f8be
00000030: f863 adbe 5efb 273f 7d27 c13e fb34 9cbf
00000040: 1fa8 3abf 7bc2 e4bf 8e54 9ebf c80c c2bf
00000050: 37b1 aebe 63b5 e1bf ca89 3e3f a119 e9bf
00000060: 25ea 12c0 f5ae 9e3d 9b43 36c0 ca28 bcbf
00000070: 3329 8e3e a6c3 af3e e961 8bbf d055 f1bd
00000080: e296 82bd cf39 643f c2ae 123b 9862 9c3f
00000090: 865c 3240 1731 7c3f 19b1 cc3f d8d1 863f
000000a0: d3c7 403e c610 ad3f 84b4 f63e 34da b13e
000000b0: 7581 843f 7f07 663f 73d4 1240 6ca6 303f
000000c0: 11d6 23bf ae7a 0740 7ba4 0d40 5692 80bf
000000d0: faeb 41bf ab6d a83f c461 5c3f 0257 0a3f
000000e0: bdee e9be 6019 bebe 6939 69bf 9e5f ab3c
000000f0: 62bc d1bd e8c0 d3bf f49f aebf 8bd1 14c0
00000100: ff7b 80bf a5b9 cebf 0849 bc3d a313 1bc0
00000110: d14b 143f b326 3e3f 783f c53c da33 813f
00000120: d1cc 1fbf 27ed 60be 6426 55be a66b b3bd
00000130: fe93 b6be 3014 1b3d 65a8 1bbe 49ea 2bbe
00000140: e6fb a6be 0202 54bf 72ae 803e 2e04 00c1
00000150: 67aa 973f d430 6d3f 1720 7d3e 120c d93f
00000160: 677d 623d 11e4 bfbd 5b15 d93f 25ad 623e
00000170: 365b c03f 5357 303e 1488 c3bd c64f bb3f
00000180: b773 b53f 795e 04bf 1fff b4be 9184 423f
00000190: fb25 293f 3b0c c53e 1f55 1dbf 6fbb c83d
000001a0: cc79 3fbf 9486 adbe 3be3 36bc 1b65 79bf
000001b0: 6449 33bf 448f 99bf f9d3 c8be 8648 2ebf
000001c0: 3c2c cf3e 28eb d2bf a91c 743e a406 f6be
000001d0: d4e3 d1be 65c0 403e 0538 b4bd 3cf4 93bf
000001e0: bd40 013e 6bfd a83d 57d1 08bf b675 1d3e
000001f0: ea38 fbbd 93f3 7ebe 2de4 a63e b554 51bf
00000200: 209a 90be e607 2f40 a597 803e b687 c43e
00000210: ca77 c73e d8b3 d03e be16 ce3e 4dcb fabd
00000220: 1322 35be e4ae 483d 006e a8be d76d 16be
00000230: 7248 6ebe d971 15be 3e1a 0a3f 1ea8 d4bd
00000240: 3a3e 94be 9ada bbbc 1b5c d9be 38e0 7c3e
00000250: b393 df3e 01e6 3c3e 124e 48be 7e0d 5f3e
00000260: cee9 3ebe 1f88 e3bd aa8c f8bd bcfa 4abe
00000270: c9af 2d3e 43c5 61bc 7bc6 75bd 5d1a 9fbe
00000280: ad92 f4bd 9bc6 653e 2ee7 f43c 5da2 11be
00000290: f0ff 4f3e 0274 b53e baeb 00be 8d8c 62be
000002a0: 304f 863b 16b0 803d 570d 443c d101 2c3e
000002b0: 2a16 44be 9c87 2f3d 238d a43c 328a 503d
000002c0: 2a63 0e3d 06ed 29be 9004 8abe 78c9 f33d
000002d0: b069 8abe 8566 31be 90ae b2be 6934 bdbc

linear1.bias f4 [8]
-2.3543377 1.1559066 -2.353881 0.670094 -1.2126844 -0.10969755 -0.1162329 -0.45712274
00000000: 78ad 16c0 bff4 933f fca5 16c0 488b 2b3f
00000010: 3e39 9bbf 1ca9 e0bd 840b eebd fe0b eabe

linear2.weight f4 [8, 8]
0.5159275 -0.8869044 0.5605691 0.022667302 -0.05347702 -0.78820324 0.06217051 0.3698962
-0.5325527 0.19458635 -0.24188244 0.53007156 -0.041675847 -0.479355 0.171954 0.21956718
0.03777147 0.4976926 -1.0220126 1.4492742 -0.9531115 0.61557436 0.85350156 -0.123553246
0.009654831 -0.024718842 -0.3147722 -0.29117942 0.16752893 0.10863738 -0.19146605 0.20485416
0.79520464 0.52645797 0.05601499 0.27373147 -0.20411275 0.9833552 0.4355741 -0.11996424
-0.25183564 -0.35323045 -0.1843113 0.2725936 0.36002898 -0.18919644 0.2938314 -0.2549344
0.5899112 -0.99012274 0.2897434 -1.5888796 -0.19804707 -0.9485053 0.20150569 0.2147867
1.2359093 -1.3230978 0.8186541 -2.862986 0.28460047 -1.1443503 0.14607957 0.18727504
00000000: d313 043f 2b0c 63bf 7581 0f3f c7b0 b93c
00000010: b80a 5bbd b0c7 49bf 81a6 7e3d 0963 bd3e
00000020: 6055 08bf a541 473e 08b0 77be c5b2 073f
00000030: 4bb4 2abd 056e f5be b614 303e 38d6 603e
00000040: 42b6 1a3d 91d1 fe3e 4fd1 82bf d181 b93f
00000050: 1eff 73bf 4896 1d3f 147f 5a3f 7c09 fdbd
00000060: 4c2f 1e3c 2b7f cabc d229 a1be 7815 95be
00000070: b48c 2b3e 467d de3d ad0f 44be 4ac5 513e
00000080: 8892 4b3f f3c5 063f f96f 653d 8826 8c3e
00000090: ef02 51be 2bbd 7b3f 9203 df3e d0af f5bd
000000a0: 9af0 80be 9fda b4be 1abc 3cbe 6391 8b3e
000000b0: b855 b83e b6bc 41be 1271 963e c386 82be
000000c0: 6c04 173f af78 7dbf 3f59 943e 6860 cbbf
000000d0: dacc 4abe 3ed1 72bf 8257 4e3e 0bf1 5b3e
000000e0: 4732 9e3f 455b a9bf 5193 513f 2a3b 37c0
000000f0: 27b7 913e 127a 92bf e295 153e 07c5 3f3e

linear2.bias f4 [8]
-0.9064325 0.38243294 0.9668553 -0.2680087 -0.96665186 -0.33617866 -1.0708325 -0.981205
00000000: f60b 68bf 40ce c33e d483 773f 7038 89be
00000010: 7f76 77bf 9c1f acbe 0a11 89bf 4030 7bbf

linear3.weight f4 [8, 8]
-0.51109594 0.55062884 -0.60078424 0.028357305 0.47979653 0.09838834 -0.5598593 -0.9040669
-0.07483772 -0.02947994 0.045086272 -0.11848275 -0.5707988 -0.16113658 0.40704095 0.29597136
0.23880139 0.00742548 -0.05015738 0.08754208 -0.88465476 -0.31599733 0.4168728 0.2961173
0.041329954 0.232459 0.6574666 0.028742751 0.05598721 -0.36623603 -0.0054328186 -0.68784183
-0.1868907 0.177252 0.0467528 0.31930012 0.10838234 0.18794969 0.22964923 -0.97943646
0.28512728 0.24198055 0.34876043 -0.32529977 0.33360973 -0.28285635 -0.08228423 -0.26794377
0.5754804 0.126029 -0.2053568 -0.2467536 -0.05676622 -0.23478054 0.5276968 0.50982374
-0.042037208 -0.004777071 0.47519308 0.10107858 0.7725724 -0.07541814 -0.13573247 -0.32717925
00000000: 2fd7 02bf 03f6 0c3f ffcc 19bf 944d e83c
00000010: e4a7 f53e d37f c93d f052 0fbf ee70 67bf
00000020: 8544 99bd ea7f f1bc 62ac 383d 16a7 f2bd
00000030: df1f 12bf fd00 25be ac67 d03e 8f89 973e
00000040: 5a88 743e 7151 f33b d371 4dbd 4349 b33d
00000050: bc78 62bf 67ca a1be 5a70 d53e b09c 973e
00000060: 9949 293d bb09 6e3e bb4f 283f eb75 eb3c
00000070: d852 653d 4a83 bbbe c905 b2bb 6716 30bf
00000080: 4760 3fbe 8c81 353e dd7f 3f3d 4e7b a33e
00000090: 8ff7 dd3d e275 403e 2b29 6b3e 59bc 7abf
000000a0: 34fc 913e c0c9 773e ba90 b23e b18d a6be
000000b0: e5ce aa3e 8cd2 90be a284 a8bd ed2f 89be
000000c0: af52 133f bf0d 013e 0e49 52be faac 7cbe
000000d0: b283 68bd 4f6a 70be 2317 073f cf83 023f
000000e0: 352f 2cbd fa88 9cbb 824c f33e 4902 cf3d
000000f0: 4ec7 453f d374 9abd 74fd 0abe 0a84 a7be

linear3.bias f4 [8]
0.7739694 -0.8710378 -0.5881808 0.07122341 0.37864432 -0.4667224 -0.97635704 -0.8104964
00000000: dc22 463f 55fc 5ebf 0493 16bf 94dd 913d
00000010: abdd c13e 3df6 eebe 89f2 79bf b17c 4fbf

linear4.weight f4 [8, 8]
0.09180548 0.26411998 0.080714315 -1.1344016 -0.7741106 0.06531252 0.11495175 -0.2809929
-0.67944574 0.19922312 -0.12492135 0.44690755 -0.0934972 0.38386577 -0.21232514 0.20635436
0.055999514 0.17956752 -0.32039872 0.13548884 0.024058793 -0.2514019 -0.11023136 -0.028090576
-0.16596167 -0.20548774 -0.3716673 0.06586944 -0.18434538 0.11132168 0.3580407 0.34266937
-0.11359817 -0.11791168 -0.15993902 0.025463974 0.14161086 0.22387922 -0.035830688 0.12801097
-0.9604721 0.4023685 0.34870896 -0.38958493 -0.32869664 -0.23404533 0.29560953 -0.43622512
-0.286432 -0.26071557 -0.26245987 0.21109281 0.076490805 0.04020882 -0.42656332 0.50165874
-0.35840034 0.26778257 0.1663194 0.112200394 -0.039332174 -0.26626837 0.15408021 0.2199685
00000000: 8304 bc3d bc3a 873e 8c4d a53d 1234 91bf
00000010: 1d2c 46bf 92c2 853d d36b eb3d 4dde 8fbe
00000020: 28f0 2dbf 2501 4c3e c4d6 ffbd 11d1 e43e
00000030: 767b bfbd 0e8a c43e c36b 59be 8f4e 533e
00000040: bf5f 653d 8ce0 373e 4d0b a4be 96bd 0a3e
00000050: f216 c53c c0b7 80be fbc0 e1bd 351e e6bc
00000060: dbf1 29be 616b 52be 2d4b bebe 8fe6 863d
00000070: 09c5 3cbe 9ffc e33d 1c51 b73e 5c72 af3e
00000080: 28a6 e8bd ae7b f1bd 0ec7 23be d399 d03c
00000090: 7002 113e 9840 653e 33c3 12bd 4f15 033e
000000a0: 80e1 75bf 3e03 ce3e fb89 b23e ad77 c7be
000000b0: ed4a a8be 94a9 6fbe 225a 973e e658 dfbe
000000c0: 37a7 92be 837c 85be 2461 86be b728 583e
000000d0: 36a7 9c3d 01b2 243d 8266 dabe b56c 003f
000000e0: 4080 b7be cc1a 893e a24f 2a3e 52c9 e53d
000000f0: c61a 21bd 5454 88be 34c7 1d3e 6c3f 613e

linear4.bias f4 [8]
1.2030407 -0.32136703 -0.4172009 -0.654867 -0.020050371 0.93691 -0.039524928 -0.8032538
00000000: 3dfd 993f 388a a4be 5b9b d5be 5da5 27bf
00000010: ad40 a4bc 55d9 6f3f e4e4 21bd 0ba2 4dbf

linear5.weight f4 [1, 8]
0.87429327 -0.60857403 0.08049783 0.48607156 -0.15319732 0.8572469 -0.3501289 -0.13835602
00000000: afd1 5f3f 82cb 1bbf 0cdc a43d 5fde f83e
00000010: c2df 1cbe 8874 5b3f 1844 b3be 33ad 0dbe
