models/model_checkpoints/regr_ffnnB_who_ckpt.pth (torch, 5129 bytes, 9 tensors)

linear1.weight f4 [8, 19]
000000 89 ff df 3d 14 59 da be 24 22 3e be 9f ef 2b bd
       0.10937411 -0.42646086 -0.18567711 -0.041976567
000010 c2 e1 28 3e a4 97 1b be 5d 4e 15 be 02 f3 a0 3c
       0.1649237 -0.15194565 -0.14580674 0.019647125
000020 76 57 17 be ac 92 45 3d cf 52 9e bd 67 05 49 be
       -0.14779457 0.04823558 -0.07730638 -0.19630967
000030 06 4d 20 bf 93 fc 97 3e c2 da 47 3b b6 5e 96 be
       -0.6261753 0.29684886 0.003049538 -0.29369134
000040 50 68 7c be 4a cb 45 3e c8 bc 86 3e 69 73 2e 3e
       -0.24649167 0.1931583 0.26315904 0.17036213
000050 e5 9a 00 3e cf e1 d4 bc 89 7e 50 3d 0f 0d 7b be
       0.12559088 -0.02598658 0.050901923 -0.245167
000060 41 87 ee bd f9 db 63 3c 24 2a d1 bc 69 2c 30 3e
       -0.116468914 0.013907426 -0.02553279 0.17204441
000070 30 8e 04 3e 9f 34 1b 3d 42 08 0b bd b1 ec 72 3f
       0.12944865 0.03789198 -0.033943422 0.9489241
000080 fe ec 46 be b2 8f 2d be bb b4 77 3d 20 d5 05 be
       -0.19426343 -0.16949347 0.060475092 -0.13069582
000090 fa 9b 43 be b0 75 97 be 2a 7a ca 3d 4e 3c e4 bd
       -0.19102469 -0.29581976 0.09886582 -0.11144315
0000a0 76 5b 87 3c 43 34 87 bd 7d 95 60 be 73 9d f0 bb
       0.016523104 -0.06601765 -0.21932025 -0.007342988
0000b0 97 ae 12 be df aa 44 bd 51 f8 a5 bd d8 83 39 be
       -0.14324413 -0.048014518 -0.08104003 -0.181167
0000c0 ed e0 2f be 6a b4 1d bc 23 a8 4b 3e 0e 6a 01 3e
       -0.17175646 -0.009625534 0.19888358 0.12638113
0000d0 8d 21 5b 3c e7 ce 34 be 62 73 01 bd 14 94 d1 3d
       0.013374698 -0.17657052 -0.03160418 0.10233322
0000e0 94 55 12 3d 3f fd 95 3c 8e 87 3e be 18 5d 93 3d
       0.035726145 0.018309234 -0.18606398 0.071954906
0000f0 13 b2 b0 3d 2b a1 e9 3d 67 ed 88 bd d4 79 50 bd
       0.08627715 0.114076935 -0.06685906 -0.050897434
000100 9a f7 fd 3d a9 84 43 3d e7 d3 8c bc 82 81 61 3e
       0.12400742 0.047733936 -0.017190887 0.2202206
000110 3c 2f ed 3d 0b 6a b1 be af 7c 6d 3e e3 a0 b0 3d
       0.11581275 -0.34651217 0.23192094 0.08624437
000120 07 ca c3 bd 34 e2 ba bb 46 04 61 3b d0 66 c6 bc
       -0.09560018 -0.005703235 0.0034334823 -0.024218947
000130 c2 7d 53 bc 8d dd a9 3e 72 cd 1a 3d e6 60 91 bd
       -0.012908401 0.33176842 0.037793584 -0.0709856
000140 24 c3 b2 be 2e 14 45 3d 7e ce 3b 3e c5 1c 49 be
       -0.34914505 0.048114948 0.1834049 -0.19639881
000150 dc ba 9d bb ff 13 25 be 8a 8e 0a be 82 3a 27 be
       -0.004813535 -0.16120909 -0.13530937 -0.16330913
000160 71 ca 8b 3f 45 54 f9 bd 7e 87 72 3c 19 35 76 bd
       1.0921155 -0.12174276 0.014802812 -0.06010923
000170 6f 9a da bd f2 16 b0 39 23 c5 bb be 9f 5f 43 be
       -0.10673987 0.00033586432 -0.3667384 -0.19079445
000180 f5 ad 3f bd 72 1e 05 be a1 46 15 3e 95 0b 30 3e
       -0.046796758 -0.12999895 0.14577724 0.17191918
000190 db e6 88 3d 26 e8 95 bb 7e e2 48 3e f8 e6 04 be
       0.06684657 -0.0045747934 0.1961765 -0.12978733
0001a0 79 59 b5 3b ff 9b 11 3e 4a 5b dc bd 80 f9 c9 3e
       0.0055343476 0.14219664 -0.107595995 0.39448166
0001b0 a1 65 08 ba c6 2f be bb 06 7c 1a be bb 2c 48 3e
       -0.0005203132 -0.005804035 -0.15086374 0.19548313
0001c0 2a 33 5b bd 3a 0c 0f be ce 49 2b be ad 75 83 bd
       -0.05351559 -0.13969508 -0.16727373 -0.06418929
0001d0 cb 1e ec bc d2 78 55 3d 5d dc 0d 3e c8 57 69 3e
       -0.028823277 0.052117176 0.13853593 0.22787392
0001e0 3e 27 0a 3e 5c 76 20 be 2c dc 95 bc b4 45 1f be
       0.13491532 -0.1567015 -0.018293463 -0.15553933
0001f0 80 7e d0 bc 4a 01 27 bc dd 00 41 be bc 0d 24 be
       -0.025450945 -0.010193178 -0.18847986 -0.16020864
000200 f0 74 8d bd 79 ae 5a be d5 bd 09 be b4 05 21 be
       -0.0690707 -0.21355619 -0.13451321 -0.15724832
000210 bf a5 43 bd 3d 4b af bd fa b3 01 3e a5 d4 07 be
       -0.04776549 -0.085592724 0.12666312 -0.13264711
000220 8a f0 6e be fa 15 89 3d 3d 62 0c bd 5c c0 14 3e
       -0.23333946 0.06693645 -0.034273375 0.14526504
000230 97 7a 2f 3e e9 9c ce bd 2c 94 7c bb 7b 24 21 bd
       0.17136608 -0.10088522 -0.0038540466 -0.03934143
000240 f9 2d b5 3d a5 f2 98 3d 76 f6 c9 3c 0a 42 23 be
       0.08846659 0.07468156 0.024653655 -0.1594316
000250 bc 88 d6 bd ed dc 03 be 9b fc 8c 3a 8b 8c 40 be
       -0.10475299 -0.12877245 0.0010756435 -0.18803613

linear1.bias f4 [8]
000000 36 db 54 be 4c 05 08 3c 25 27 14 3e 85 bb 5a bd
       -0.20786747 0.008302044 0.14468057 -0.05340149
000010 01 e5 df 3d 71 ef 2f bd 97 21 34 3e 9f 72 c6 bc
       0.10932351 -0.04295296 0.17590939 -0.024224577

linear2.weight f4 [8, 8]
000000 ea 85 d4 3e b3 51 f6 be 04 38 a7 be a9 d6 34 3e
       0.41508418 -0.48109207 -0.32659924 0.17660011
000010 c9 3b 32 bf d8 34 d7 bd 43 af 94 3e 37 09 27 be
       -0.69622475 -0.10508126 0.29039964 -0.16312109
000020 6a 3a bb 3e 1d 95 87 bd 74 f3 64 be d0 f5 5e 3e
       0.36568004 -0.06620238 -0.22358495 0.21773458
000030 4d 3f 25 bf 41 8a 88 be 94 41 21 be a5 39 84 3e
       -0.64549714 -0.2666798 -0.15747672 0.2582523
000040 5b b1 67 be 2c 65 57 3e 9e ca 61 3e ce 5a 5a 3c
       -0.2262625 0.21034688 0.22049949 0.013327314
000050 01 f3 0d be 35 51 37 be 7d d6 33 be c5 64 aa be
       -0.1386223 -0.17902072 -0.1756229 -0.33280006
000060 49 c1 ac be d1 28 6a 3d d8 f3 7c be 1d a2 c2 bd
       -0.33741215 0.05716783 -0.24702394 -0.09503577
000070 4e b3 a5 3e 66 7d 81 be 84 c5 2e 3e 06 c2 68 3c
       0.3236336 -0.25290984 0.17067534 0.014206415
000080 f4 55 b4 be b7 b7 80 3d a4 e8 1f be b6 ab 82 3e
       -0.35221827 0.06285041 -0.15616089 0.2552163
000090 e0 a6 fb bd b4 6e e8 3d c6 c1 9a 3d 03 cb 82 3e
       -0.12287688 0.1134924 0.075564906 0.2554551
0000a0 06 24 7b 3b 81 c7 d3 be f6 e7 a6 be 8b 63 29 be
       0.0038321032 -0.41363147 -0.32598847 -0.16541879
0000b0 e4 ad c1 3c b5 79 b6 3d 4b 30 90 be 2c f4 b3 3d
       0.023642488 0.089099325 -0.28161845 0.087868065
0000c0 0d 7c e4 3d 64 d0 07 bf a3 96 89 3e 92 98 40 bd
       0.11156473 -0.53052354 0.2687274 -0.047020502
0000d0 21 cd c3 be 92 da 7f be 14 e9 63 3e cb c2 8d be
       -0.38242438 -0.24985722 0.22256881 -0.27687678
0000e0 04 4f 03 bd e7 31 c3 3e 06 c2 92 bd d3 61 96 be
       -0.032057777 0.3812401 -0.07165913 -0.2937151
0000f0 28 08 03 bd ce 21 9b 3e e8 2c 97 3c 2e 41 86 3e
       -0.0319902 0.30299228 0.01845403 0.26221603

linear2.bias f4 [8]
000000 40 8d 00 be c4 48 01 bd 48 e6 d1 bd 73 f2 98 3d
       -0.12553883 -0.031563535 -0.10249001 0.074681185
000010 80 60 b1 3d 85 93 04 be ac fb c5 be 56 25 ea 3d
       0.08660984 -0.12946899 -0.38668573 0.114329025

linear3.weight f4 [8, 8]
000000 e3 47 df 3e aa 07 de 3e a8 21 29 be eb 8f 83 3e
       0.43609533 0.43365222 -0.16516745 0.25695738
000010 2f f4 7c 3e c9 b6 94 3e 3e 6d ba 3e 0d a2 3a be
       0.24702524 0.29045704 0.3641147 -0.1822588
000020 32 b0 b0 be af 46 e9 3d 4e fd 4f be 72 c6 53 be
       -0.34509426 0.11390435 -0.20311472 -0.2068117
000030 8c d1 eb bd b5 d0 72 be 3b cf bc be 66 2c c1 bc
       -0.11514577 -0.23712428 -0.36876854 -0.023580741
000040 64 7e df 3d 74 03 8d 3e af 9b b9 3e 86 64 ac 3e
       0.10912779 0.27541697 0.3625159 0.33670443
000050 d5 a5 fe 3d 73 40 b1 be f7 9a 99 bd 24 c6 3d be
       0.12433974 -0.34619483 -0.0750026 -0.18532616
000060 0e 00 dc be 5e 5b 97 be ff b5 a2 3d d6 c6 58 3e
       -0.42968792 -0.29561895 0.07944869 0.211696
000070 2b 2d 5d 3e c7 04 1f be 49 f8 cc be 86 d3 ac 3e
       0.21599261 -0.15529166 -0.40033177 0.3375513
000080 ad 4b 8e be 7b 55 87 be 3d 71 49 be 53 89 a8 3d
       -0.2779211 -0.26432404 -0.19672103 0.082293175
000090 d7 12 2e be c3 15 27 3d bc 60 27 3e 96 92 59 bd
       -0.16999374 0.040792238 0.16345495 -0.05311831
0000a0 81 8d 6b 3d 61 13 05 be 87 bb 88 be 8c 23 96 be
       0.057507996 -0.12995674 -0.26705572 -0.29323995
0000b0 11 c1 48 be e5 75 89 3e 92 84 a7 be 66 97 11 3e
       -0.19604899 0.2684776 -0.3271833 0.1421791
0000c0 df b1 a8 3e 57 09 50 3e 55 c7 a5 bd e6 32 45 be
       0.32948205 0.20316063 -0.0809466 -0.19257697
0000d0 3b f8 ae 3e b0 f3 77 be b4 78 b8 3d 89 31 35 3e
       0.3417376 -0.24214053 0.09007397 0.17694677
0000e0 af 98 e1 3e 50 92 bb 3e 3a 54 74 3d 1c 69 8c be
       0.440618 0.36635065 0.059650637 -0.27423942
0000f0 54 fb ae be aa 9f 21 3c fc 55 d4 3e b9 e6 7c be
       -0.34176123 0.009864727 0.4147185 -0.24697389

linear3.bias f4 [8]
000000 47 e5 80 bc 4a 8d 90 3d d1 23 c0 bd b6 1f 83 bc
       -0.015734328 0.07058199 -0.093818314 -0.016006332
000010 00 e1 2b bd bd cb 0c 3e 25 ea 1c 3e aa 06 17 be
       -0.041962624 0.13749595 0.15323694 -0.14748636

linear4.weight f4 [8, 8]
000000 57 84 7c 3e 39 09 68 3e 1d bf f9 bd 18 af 95 be
       0.24659859 0.22659768 -0.12194655 -0.29235148
000010 03 61 02 be 16 10 65 bd 31 01 67 be b0 1d a0 3e
       -0.1273232 -0.055923544 -0.22559048 0.3127265
000020 82 96 81 be 1a 93 50 bd d0 0e d1 3d fd 13 27 3d
       -0.2531014 -0.050921537 0.102079034 0.040790547
000030 72 66 98 be 8b e2 3b 3d 9f 60 3a be f4 10 1b be
       -0.2976566 0.045870345 -0.1820092 -0.15143186
000040 0f 68 3b 3e 84 c0 12 be fe b7 ca be 84 b7 ac 3e
       0.18301414 -0.14331251 -0.395935 0.3373376
000050 82 aa 11 3d 9c bc 95 be 05 c0 d5 bd 07 d7 5d be
       0.035563 -0.2924546 -0.104370154 -0.21664058
000060 ce ca 07 3f 51 26 c4 be 30 28 06 be 6b c5 af be
       0.5304383 -0.38310483 -0.13101268 -0.34330305
000070 4d 4a 98 be 8d 12 22 be 7a b1 c2 3e 4f 86 f3 3e
       -0.29744187 -0.15827389 0.3802603 0.47563407
000080 6b 04 db 3a 21 53 4d be 20 5c ed 3b 24 ae 4d bd
       0.0016709691 -0.20051242 0.007243648 -0.0502149
000090 ff 84 dd bd 1c 0c 99 be 29 20 a9 be 8a a5 1a 3e
       -0.108163826 -0.2989205 -0.3303235 0.1510221
0000a0 69 7c 3c be 92 e9 52 3d dc 4b 9a 3e 6a 2f 88 3e
       -0.18406834 0.05149228 0.30136 0.26598674
0000b0 9a 08 ea bc 92 7c 6e 3d 41 40 b8 3d 8e 31 b3 3d
       -0.028568555 0.05822427 0.089966305 0.08749686
0000c0 d1 87 87 3e 16 f6 99 be 36 3e 93 bd 01 1d 02 be
       0.26470807 -0.3007056 -0.071896 -0.12706377
0000d0 43 49 60 3d 3b 9d 9f 3e bd a7 81 be de c4 3b be
       0.054757368 0.31174645 -0.25323287 -0.18336818
0000e0 bc 03 91 be 81 da aa bc 8c e3 5a 3e 4e 08 1a 3e
       -0.28323162 -0.020856144 0.21375865 0.1504223
0000f0 e2 11 68 3e 3c e7 e4 3d 1c 2f 96 3d 2e 49 a0 3d
       0.22663072 0.11176917 0.07333204 0.07826458

linear4.bias f4 [8]
000000 21 a3 77 3c 11 e6 88 bc bd a0 de 3d 8a d8 13 3e
       0.015114577 -0.016711267 0.10870502 0.14438072
000010 5b 37 c2 3d 22 cd 15 bd 2d 0e 3b 3d 59 12 c0 3c
       0.094832145 -0.036572583 0.045667816 0.023446249

linear5.weight f4 [1, 8]
000000 f7 25 6a 3d e4 44 8a bc 28 d6 e5 bd ba 24 b4 3e
       0.057165112 -0.016878553 -0.11222488 0.3518427
000010 f8 02 5a 3d 5a 10 9d 3c 42 cc 33 bd 3b 71 da 3c
       0.053225487 0.019172836 -0.043895967 0.02666532
